{"format": "torch", "nodes": [{"name": "distilbert", "id": 139916776981448, "class_name": "DistilBertModel(\n  (embeddings): Embeddings(\n    (word_embeddings): Embedding(30522, 768, padding_idx=0)\n    (position_embeddings): Embedding(512, 768)\n    (LayerNorm): LayerNorm((768,), eps=1e-12, elementwise_affine=True)\n    (dropout): Dropout(p=0.1, inplace=False)\n  )\n  (transformer): Transformer(\n    (layer): ModuleList(\n      (0): TransformerBlock(\n        (attention): MultiHeadSelfAttention(\n          (dropout): Dropout(p=0.1, inplace=False)\n          (q_lin): Linear(in_features=768, out_features=768, bias=True)\n          (k_lin): Linear(in_features=768, out_features=768, bias=True)\n          (v_lin): Linear(in_features=768, out_features=768, bias=True)\n          (out_lin): Linear(in_features=768, out_features=768, bias=True)\n        )\n        (sa_layer_norm): LayerNorm((768,), eps=1e-12, elementwise_affine=True)\n        (ffn): FFN(\n          (dropout): Dropout(p=0.1, inplace=False)\n          (lin1): Linear(in_features=768, out_features=3072, bias=True)\n          (lin2): Linear(in_features=3072, out_features=768, bias=True)\n        )\n        (output_layer_norm): LayerNorm((768,), eps=1e-12, elementwise_affine=True)\n      )\n      (1): TransformerBlock(\n        (attention): MultiHeadSelfAttention(\n          (dropout): Dropout(p=0.1, inplace=False)\n          (q_lin): Linear(in_features=768, out_features=768, bias=True)\n          (k_lin): Linear(in_features=768, out_features=768, bias=True)\n          (v_lin): Linear(in_features=768, out_features=768, bias=True)\n          (out_lin): Linear(in_features=768, out_features=768, bias=True)\n        )\n        (sa_layer_norm): LayerNorm((768,), eps=1e-12, elementwise_affine=True)\n        (ffn): FFN(\n          (dropout): Dropout(p=0.1, inplace=False)\n          (lin1): Linear(in_features=768, out_features=3072, bias=True)\n          (lin2): Linear(in_features=3072, out_features=768, bias=True)\n        )\n        (output_layer_norm): LayerNorm((768,), eps=1e-12, elementwise_affine=True)\n      )\n      (2): TransformerBlock(\n        (attention): MultiHeadSelfAttention(\n          (dropout): Dropout(p=0.1, inplace=False)\n          (q_lin): Linear(in_features=768, out_features=768, bias=True)\n          (k_lin): Linear(in_features=768, out_features=768, bias=True)\n          (v_lin): Linear(in_features=768, out_features=768, bias=True)\n          (out_lin): Linear(in_features=768, out_features=768, bias=True)\n        )\n        (sa_layer_norm): LayerNorm((768,), eps=1e-12, elementwise_affine=True)\n        (ffn): FFN(\n          (dropout): Dropout(p=0.1, inplace=False)\n          (lin1): Linear(in_features=768, out_features=3072, bias=True)\n          (lin2): Linear(in_features=3072, out_features=768, bias=True)\n        )\n        (output_layer_norm): LayerNorm((768,), eps=1e-12, elementwise_affine=True)\n      )\n      (3): TransformerBlock(\n        (attention): MultiHeadSelfAttention(\n          (dropout): Dropout(p=0.1, inplace=False)\n          (q_lin): Linear(in_features=768, out_features=768, bias=True)\n          (k_lin): Linear(in_features=768, out_features=768, bias=True)\n          (v_lin): Linear(in_features=768, out_features=768, bias=True)\n          (out_lin): Linear(in_features=768, out_features=768, bias=True)\n        )\n        (sa_layer_norm): LayerNorm((768,), eps=1e-12, elementwise_affine=True)\n        (ffn): FFN(\n          (dropout): Dropout(p=0.1, inplace=False)\n          (lin1): Linear(in_features=768, out_features=3072, bias=True)\n          (lin2): Linear(in_features=3072, out_features=768, bias=True)\n        )\n        (output_layer_norm): LayerNorm((768,), eps=1e-12, elementwise_affine=True)\n      )\n      (4): TransformerBlock(\n        (attention): MultiHeadSelfAttention(\n          (dropout): Dropout(p=0.1, inplace=False)\n          (q_lin): Linear(in_features=768, out_features=768, bias=True)\n          (k_lin): Linear(in_features=768, out_features=768, bias=True)\n          (v_lin): Linear(in_features=768, out_features=768, bias=True)\n          (out_lin): Linear(in_features=768, out_features=768, bias=True)\n        )\n        (sa_layer_norm): LayerNorm((768,), eps=1e-12, elementwise_affine=True)\n        (ffn): FFN(\n          (dropout): Dropout(p=0.1, inplace=False)\n          (lin1): Linear(in_features=768, out_features=3072, bias=True)\n          (lin2): Linear(in_features=3072, out_features=768, bias=True)\n        )\n        (output_layer_norm): LayerNorm((768,), eps=1e-12, elementwise_affine=True)\n      )\n      (5): TransformerBlock(\n        (attention): MultiHeadSelfAttention(\n          (dropout): Dropout(p=0.1, inplace=False)\n          (q_lin): Linear(in_features=768, out_features=768, bias=True)\n          (k_lin): Linear(in_features=768, out_features=768, bias=True)\n          (v_lin): Linear(in_features=768, out_features=768, bias=True)\n          (out_lin): Linear(in_features=768, out_features=768, bias=True)\n        )\n        (sa_layer_norm): LayerNorm((768,), eps=1e-12, elementwise_affine=True)\n        (ffn): FFN(\n          (dropout): Dropout(p=0.1, inplace=False)\n          (lin1): Linear(in_features=768, out_features=3072, bias=True)\n          (lin2): Linear(in_features=3072, out_features=768, bias=True)\n        )\n        (output_layer_norm): LayerNorm((768,), eps=1e-12, elementwise_affine=True)\n      )\n    )\n  )\n)", "parameters": [], "output_shape": [[[[0], [0], [0], [0], [0], [0], [0], [0], 0, [0], [0], 0, 0, 0, 0, 0, 0]]], "num_parameters": []}, {"name": "pre_classifier", "id": 139916749949360, "class_name": "Linear(in_features=768, out_features=768, bias=True)", "parameters": [], "output_shape": [[16, 768]], "num_parameters": []}, {"name": "dropout", "id": 139916749949584, "class_name": "Dropout(p=0.2, inplace=False)", "parameters": [], "output_shape": [[16, 768]], "num_parameters": []}, {"name": "classifier", "id": 139916749949472, "class_name": "Linear(in_features=768, out_features=3, bias=True)", "parameters": [], "output_shape": [[16, 3]], "num_parameters": []}, {"name": "distilbert", "id": 139916776981504, "class_name": "DistilBertModel(\n  (embeddings): Embeddings(\n    (word_embeddings): Embedding(30522, 768, padding_idx=0)\n    (position_embeddings): Embedding(512, 768)\n    (LayerNorm): LayerNorm((768,), eps=1e-12, elementwise_affine=True)\n    (dropout): Dropout(p=0.1, inplace=False)\n  )\n  (transformer): Transformer(\n    (layer): ModuleList(\n      (0): TransformerBlock(\n        (attention): MultiHeadSelfAttention(\n          (dropout): Dropout(p=0.1, inplace=False)\n          (q_lin): Linear(in_features=768, out_features=768, bias=True)\n          (k_lin): Linear(in_features=768, out_features=768, bias=True)\n          (v_lin): Linear(in_features=768, out_features=768, bias=True)\n          (out_lin): Linear(in_features=768, out_features=768, bias=True)\n        )\n        (sa_layer_norm): LayerNorm((768,), eps=1e-12, elementwise_affine=True)\n        (ffn): FFN(\n          (dropout): Dropout(p=0.1, inplace=False)\n          (lin1): Linear(in_features=768, out_features=3072, bias=True)\n          (lin2): Linear(in_features=3072, out_features=768, bias=True)\n        )\n        (output_layer_norm): LayerNorm((768,), eps=1e-12, elementwise_affine=True)\n      )\n      (1): TransformerBlock(\n        (attention): MultiHeadSelfAttention(\n          (dropout): Dropout(p=0.1, inplace=False)\n          (q_lin): Linear(in_features=768, out_features=768, bias=True)\n          (k_lin): Linear(in_features=768, out_features=768, bias=True)\n          (v_lin): Linear(in_features=768, out_features=768, bias=True)\n          (out_lin): Linear(in_features=768, out_features=768, bias=True)\n        )\n        (sa_layer_norm): LayerNorm((768,), eps=1e-12, elementwise_affine=True)\n        (ffn): FFN(\n          (dropout): Dropout(p=0.1, inplace=False)\n          (lin1): Linear(in_features=768, out_features=3072, bias=True)\n          (lin2): Linear(in_features=3072, out_features=768, bias=True)\n        )\n        (output_layer_norm): LayerNorm((768,), eps=1e-12, elementwise_affine=True)\n      )\n      (2): TransformerBlock(\n        (attention): MultiHeadSelfAttention(\n          (dropout): Dropout(p=0.1, inplace=False)\n          (q_lin): Linear(in_features=768, out_features=768, bias=True)\n          (k_lin): Linear(in_features=768, out_features=768, bias=True)\n          (v_lin): Linear(in_features=768, out_features=768, bias=True)\n          (out_lin): Linear(in_features=768, out_features=768, bias=True)\n        )\n        (sa_layer_norm): LayerNorm((768,), eps=1e-12, elementwise_affine=True)\n        (ffn): FFN(\n          (dropout): Dropout(p=0.1, inplace=False)\n          (lin1): Linear(in_features=768, out_features=3072, bias=True)\n          (lin2): Linear(in_features=3072, out_features=768, bias=True)\n        )\n        (output_layer_norm): LayerNorm((768,), eps=1e-12, elementwise_affine=True)\n      )\n      (3): TransformerBlock(\n        (attention): MultiHeadSelfAttention(\n          (dropout): Dropout(p=0.1, inplace=False)\n          (q_lin): Linear(in_features=768, out_features=768, bias=True)\n          (k_lin): Linear(in_features=768, out_features=768, bias=True)\n          (v_lin): Linear(in_features=768, out_features=768, bias=True)\n          (out_lin): Linear(in_features=768, out_features=768, bias=True)\n        )\n        (sa_layer_norm): LayerNorm((768,), eps=1e-12, elementwise_affine=True)\n        (ffn): FFN(\n          (dropout): Dropout(p=0.1, inplace=False)\n          (lin1): Linear(in_features=768, out_features=3072, bias=True)\n          (lin2): Linear(in_features=3072, out_features=768, bias=True)\n        )\n        (output_layer_norm): LayerNorm((768,), eps=1e-12, elementwise_affine=True)\n      )\n      (4): TransformerBlock(\n        (attention): MultiHeadSelfAttention(\n          (dropout): Dropout(p=0.1, inplace=False)\n          (q_lin): Linear(in_features=768, out_features=768, bias=True)\n          (k_lin): Linear(in_features=768, out_features=768, bias=True)\n          (v_lin): Linear(in_features=768, out_features=768, bias=True)\n          (out_lin): Linear(in_features=768, out_features=768, bias=True)\n        )\n        (sa_layer_norm): LayerNorm((768,), eps=1e-12, elementwise_affine=True)\n        (ffn): FFN(\n          (dropout): Dropout(p=0.1, inplace=False)\n          (lin1): Linear(in_features=768, out_features=3072, bias=True)\n          (lin2): Linear(in_features=3072, out_features=768, bias=True)\n        )\n        (output_layer_norm): LayerNorm((768,), eps=1e-12, elementwise_affine=True)\n      )\n      (5): TransformerBlock(\n        (attention): MultiHeadSelfAttention(\n          (dropout): Dropout(p=0.1, inplace=False)\n          (q_lin): Linear(in_features=768, out_features=768, bias=True)\n          (k_lin): Linear(in_features=768, out_features=768, bias=True)\n          (v_lin): Linear(in_features=768, out_features=768, bias=True)\n          (out_lin): Linear(in_features=768, out_features=768, bias=True)\n        )\n        (sa_layer_norm): LayerNorm((768,), eps=1e-12, elementwise_affine=True)\n        (ffn): FFN(\n          (dropout): Dropout(p=0.1, inplace=False)\n          (lin1): Linear(in_features=768, out_features=3072, bias=True)\n          (lin2): Linear(in_features=3072, out_features=768, bias=True)\n        )\n        (output_layer_norm): LayerNorm((768,), eps=1e-12, elementwise_affine=True)\n      )\n    )\n  )\n)", "parameters": [], "output_shape": [[[[0], [0], [0], [0], [0], [0], [0], [0], 0, [0], [0], 0, 0, 0, 0, 0, 0]]], "num_parameters": []}, {"name": "pre_classifier", "id": 139916749949416, "class_name": "Linear(in_features=768, out_features=768, bias=True)", "parameters": [], "output_shape": [[16, 768]], "num_parameters": []}, {"name
…
